Extra code/lstm_model_checkpoint.pth (torch, 60500 bytes, 5 tensors)

lstm.weight_ih_l0 f4 [200, 20]
0.45352373 0.5785201 0.64739156 0.5825713 0.586031 0.3202012 0.5822189 0.6879706
0.46830595 0.7164224 0.6062644 0.5630361 0.5836474 0.6283821 0.5016606 -0.5634659
0.96357214 1.0228536 0.02619605 0.041031767 0.47316715 0.5083955 0.7111772 0.5183141
0.76311016 0.35105783 0.5878546 0.45318177 0.40210444 0.7490933 0.650878 0.45018733
0.6132421 0.6960673 0.6437404 -0.62570363 0.9973448 1.057438 0.13332845 0.01753865
0.55451256 0.38161638 0.8133808 0.40937483 0.5476788 0.43615222 0.6545116 0.73601556
0.6531216 0.8439724 0.80701137 0.77276176 0.81541824 0.75410295 0.4100335 -0.33724144
0.90718657 0.83258265 0.010200422 0.0008774763 0.51638013 0.4502543 0.6222688 0.2715646
0.3853581 0.48986804 0.43196893 0.7696676 0.6068332 0.77717817 0.5632651 0.70230496
0.5685038 0.643294 0.29240614 -0.5932759 0.93713814 1.0652628 -0.017026957 -0.018157018
0.6880226 0.6610273 0.6558147 0.46459937 0.70615053 0.5330879 0.452601 0.5818835
0.5076486 0.7002835 0.8194248 0.5374859 0.668813 0.49510273 0.5613398 -0.5513112
0.9059112 0.92205787 0.021679286 0.029101977 0.90270627 0.4594256 0.6735141 0.54610384
0.6289683 0.08200823 0.36642843 0.7897693 0.61237675 0.6877809 0.9446935 0.57508385
0.7925482 0.59818923 0.42425627 -0.40056828 0.9653507 0.96522117 0.046652153 0.037843697
0.79739 0.5009043 0.51778126 0.4006978 0.60941875 0.33479294 0.74140143 0.54435176
0.6853341 0.56799936 0.681804 0.70879084 0.59290534 0.6118658 0.45656475 -0.677474
0.9166901 1.2367798 -0.009233361 -0.052644216 0.6242566 0.6678407 0.55782527 0.56678146
0.6114297 0.50804275 0.55873483 0.68563646 0.4054729 0.62595016 0.74628025 0.5831385
0.7111144 0.66834533 0.5755639 -0.5246592 1.033688 0.8958877 0.03741936 0.055197522
0.6004282 0.6773165 0.5107222 0.4444561 0.67071617 0.5263305 0.63959813 0.60697544
0.38899642 0.85982263 0.9024133 0.6701405 0.72047037 0.5551231 0.68691653 -0.5153901
0.88964236 0.92332643 0.099839225 -0.047882706 0.6019416 0.6742565 0.48760575 0.41623738
0.6197484 0.35189632 0.69473153 0.50214934 0.47386044 0.7425187 0.79303324 0.62902606
0.5985879 0.461479 0.48196504 -0.5042564 0.7647132 0.9790781 0.013935134 0.017718013
0.6446218 0.6276584 0.47632736 0.5060236 0.4830259 0.36772066 0.6448422 0.7089043
0.6047736 0.64017576 0.55348825 0.6957508 0.5318965 0.5040922 0.56304854 -0.62853956
0.97090554 1.1933259 -0.053134188 -0.0060662674 0.6424179 0.6788963 0.47706807 0.692824
0.6087597 0.5132256 0.5633439 0.5554229 0.63653505 0.6597509 0.58720213 0.5250547
0.67516387 0.42420912 0.6160512 -0.41462746 1.0553432 1.2080334 -0.0495509 0.015276255
0.94374114 -0.086788304 0.9209719 0.34660667 0.51147974 -0.1001996 0.41085875 0.8588124
0.6191322 0.81683624 0.98228246 0.5069391 0.7071645 0.7487562 0.16447407 -0.692935
00000000: 4334 e83e e519 143f 74bb 253f 6523 153f
00000010: 2106 163f 69f1 a33e 4c0c 153f d71e 303f
00000020: ccc5 ef3e 7567 373f 2534 1b3f 2223 103f
00000030: ea69 153f a6dd 203f d46c 003f 4d3f 10bf
00000040: aaac 763f deec 823f 1999 d63c ed10 283d
00000050: f742 f23e 3526 023f b50f 363f 3cb0 043f
00000060: 305b 433f dabd b33e a47d 163f 7107 e83e
00000070: a2e0 cd3e 94c4 3f3f f19f 263f f47e e63e
00000080: 6ffd 1c3f 7731 323f 2ccc 243f 1d2e 20bf
00000090: fd51 7f3f 215a 873f 4187 083e 37ad 8f3c
000000a0: 89f4 0d3f 3963 c33e b939 503f 9499 d13e
000000b0: ae34 0c3f 584f df3e 128e 273f 846b 3c3f
000000c0: fa32 273f 930e 583f 4c98 4e3f b7d3 453f
000000d0: 40bf 503f e40c 413f e9ef d13e e9aa acbe
000000e0: 613d 683f 2324 553f ac1f 273c 7006 663a
000000f0: 7d31 043f bb87 e63e 024d 1f3f 840a 8b3e
00000100: a84d c53e fccf fa3e 082b dd3e f008 453f
00000110: 6c59 1b3f 26f5 463f 2432 103f 42ca 333f
00000120: 7789 113f eaae 243f 42b6 953e eee0 17bf
00000130: 49e8 6f3f 885a 883f 1e7c 8bbc 07be 94bc
00000140: 4022 303f 1639 293f 79e3 273f f8df ed3e
00000150: 48c6 343f 7378 083f 51bb e73e 51f6 143f
00000160: 42f5 013f c845 333f d3c5 513f ad98 093f
00000170: 5437 2b3f 1b7e fd3e f7b3 0f3f bb22 0dbf
00000180: cce9 673f fc0b 6c3f c298 b13c 4567 ee3c
00000190: c217 673f d539 eb3e 6c6b 2c3f 76cd 0b3f
000001a0: 1104 213f eef3 a73d 829c bb3e 522e 4a3f
000001b0: b9c4 1c3f 6912 303f 6fd7 713f b238 133f
000001c0: 70e4 4a3f ee22 193f 1e38 d93e 4917 cdbe
000001d0: 3921 773f bc18 773f 5416 3f3d fe01 1b3d
000001e0: c021 4c3f 443b 003f 508d 043f 4328 cd3e
000001f0: de02 1c3f fb69 ab3e 7ccc 3d3f a35a 0b3f
00000200: 0e72 2f3f 6868 113f b58a 2e3f 5173 353f
00000210: a5c8 173f 3da3 1c3f dbc2 e93e f06e 2dbf
00000220: 34ac 6a3f cd4e 9e3f 8647 17bc 76a1 57bd
00000230: 48cf 1f3f 9cf7 2a3f a3cd 0e3f 9718 113f
00000240: a886 1c3f 170f 023f 3f09 0f3f df85 2f3f
00000250: 259a cf3e 453e 203f 390c 3f3f 9148 153f
00000260: 980b 363f ae18 2b3f 2858 133f 1150 06bf
00000270: e34f 843f e558 653f 0b45 193d cc16 623d
00000280: aab5 193f 9d64 2d3f b1be 023f c08f e33e
00000290: 0eb4 2b3f 98bd 063f b4bc 233f be62 1b3f
000002a0: 8a2a c73e 561d 5c3f 8f04 673f 548e 2b3f
000002b0: bf70 383f 8c1c 0e3f c3d9 2f3f 9bf0 03bf
000002c0: 9abf 633f 1f5f 6c3f 8278 cc3d a820 44bd
000002d0: d818 1a3f 139c 2c3f 76a7 f93e 111d d53e
000002e0: d5a7 1e3f c12b b43e edd9 313f dc8c 003f
000002f0: d69d f23e b515 3e3f 3a04 4b3f da07 213f
00000300: 0e3d 193f fa46 ec3e 1fc4 f63e f316 01bf
00000310: 3fc4 433f dda4 7a3f 3050 643c 5e25 913c
00000320: ef05 253f 39ae 203f 2ee1 f33e c38a 013f
00000330: 2c4f f73e e245 bc3e 6114 253f c17a 353f
00000340: 71d2 1a3f 8fe2 233f 68b1 0d3f b91c 323f
00000350: 5e2a 083f 300c 013f f323 103f f8e7 20bf
00000360: 448d 783f e7be 983f 3ca3 59bd 8ac7 c6bb
00000370: 8075 243f 26cc 2d3f 4442 f43e ea5c 313f
00000380: add7 1b3f c162 033f 4e37 103f 3230 0e3f
00000390: f6f3 223f 6fe5 283f e152 163f fc69 063f
000003a0: 8ad7 2c3f f031 d93e 88b5 1d3f 0d4a d4be
000003b0: 7c15 873f d7a0 9a3f e2f5 4abd 4249 7a3c
000003c0: 0599 713f 11be b1bd d0c4 6b3f 6e76 b13e
000003d0: 56f0 023f 7335 cdbd 145c d23e 21db 5b3f
000003e0: 737f 1e3f 2e1c 513f dd76 7b3f c3c6 013f
000003f0: bc08 353f 7cae 3f3f e46b 283e 3064 31bf

lstm.weight_hh_l0 f4 [200, 50]
-0.039191328 0.09628244 0.02113282 0.046604957 0.11716998 0.016878178 0.111445025 0.08422792
-0.12417261 0.035921138 0.09041681 -0.09579652 0.12806064 0.052548945 0.015593947 0.010046646
-0.03607747 -0.067776196 0.010417201 0.053972397 -0.050415218 0.10344781 -0.07464462 0.029696552
-0.08518861 0.12739778 -0.02380771 0.025380682 0.0325139 0.0043395073 -0.100618005 -0.064231396
0.021720953 0.13874616 0.11056149 0.04398894 0.05028212 0.12642689 -0.13289769 0.12559696
0.03597768 -0.01414863 0.052152276 -0.08390081 -0.08303073 0.008201305 -0.060573168 0.09397062
-0.04196009 -0.1081565 0.013541581 0.078877226 -0.011616195 -0.028974392 -0.01301783 -0.0028038109
0.10792274 0.021797508 -0.019411001 -0.07490309 -0.015127887 -0.10812665 0.098639764 -0.13859794
-0.069030605 0.11916607 0.114987954 -0.06834582 -0.096303545 -0.11972184 -0.09156531 -0.07234593
-0.03792952 -0.027844856 -0.108119786 0.033855435 0.12459442 0.1144888 0.04173435 0.103800796
-0.0012603932 -0.014233565 0.09007224 -0.07241279 -0.09151052 -0.0029762757 -0.06960165 -0.061323702
-0.13515279 0.09157457 0.029131077 -0.008701099 -0.14025937 -0.10671217 0.01686223 0.0017338034
0.10271379 -0.08376267 -0.11072982 -0.104514346 0.053791232 0.021049773 -0.0020721753 -0.123736106
0.11980532 0.0039490755 -0.044935945 -0.009366564 -0.04911128 0.06272648 -0.048229266 0.005013924
-0.09797023 -0.08450733 -0.13816008 -0.09047246 -0.13013664 0.068057045 -0.06237351 0.07455481
0.050251048 0.12376381 0.004148093 -0.032324053 -0.029147245 0.103322886 0.09450587 -0.010040627
-0.037294313 -0.11639394 0.06921132 -0.02894123 -0.05214469 0.09213618 -0.13921466 -0.1183729
-0.0009667139 -0.05270393 -0.020464724 -0.08802685 0.09406412 -0.012074618 0.0060033635 -0.10982571
-0.090997696 0.065293156 -0.05215086 0.06292132 0.011231967 -0.05091965 0.1295034 -0.049460053
-0.035180263 0.0638792 -0.09606296 -0.07795475 -0.09598965 0.08425317 -0.03137533 0.13056113
0.12353009 0.06781912 0.11513181 -0.06936335 -0.104876466 0.053347714 0.12058659 0.12578481
0.028255045 0.0958004 0.030349204 0.13935155 -0.13144496 -0.13243954 -0.024378784 0.113889456
-0.03469549 0.004722757 -0.08659003 0.022163427 0.11684931 0.07510855 -0.09861107 0.040667616
0.059297737 0.082937986 0.06347562 -0.08488592 0.0577687 -0.11073808 0.0908038 -0.02452677
-0.13803734 0.02224 0.13933407 -0.051512014 0.011734594 -0.06477682 0.05740932 -0.012734907
0.11603714 0.11637713 0.0066763815 -0.03314715 -0.09208792 0.0340119 -0.11060018 -0.07757433
0.1319004 0.048818864 0.050855838 0.053530395 -0.08745817 -0.11379442 0.114466004 0.04338474
0.040486533 0.02191041 0.033365976 -0.05336604 0.029711979 -0.067086406 -0.046556186 -0.109816976
0.052914746 -0.04486126 -0.1051442 0.05245324 -0.07260484 -0.017072914 0.025461806 0.05538157
0.073664784 -0.09377551 -0.08588908 0.06915202 0.12392762 -0.034024257 -0.118612766 -0.07913125
-0.040798236 0.037404805 0.14039963 0.08324193 0.015855966 -0.07596024 0.067817315 -0.08059351
-0.04798269 0.028203897 -0.13580224 0.006069703 0.09955888 -0.08874565 -0.11024586 0.119917564
00000000: 1687 20bd ba2f c53d bc1e ad3c d7e4 3e3d
00000010: d1f6 ef3d 1b44 8a3c 4a3d e43d b07f ac3d
00000020: 364e febd 0b22 133d 732c b93d f730 c4bd
00000030: 5422 033e 903d 573d c17d 7f3c b09a 243c
00000040: f8c5 13bd 3fce 8abd e8ac 2a3c 2912 5d3d
00000050: 3080 4ebd 72dc d33d 47df 98bd 2f46 f33c
00000060: 5e77 aebd 9074 023e 6308 c3bc 26eb cf3c
00000070: 4c2d 053d 6d32 8e3b d010 cebd c08b 83bd
00000080: 24f0 b13c 7913 0e3e 106e e23d bf2d 343d
00000090: a0f4 4d3d 0d76 013e 5516 08be 7d9c 003e
000000a0: 555d 133d a8cf 67bc a09d 553d 30d4 abbd
000000b0: 040c aabd c45e 063c 921b 78bd ab73 c03d
000000c0: 58de 2bbd 2881 ddbd 82dd 5d3c 628a a13d
000000d0: da51 3ebc b45b edbc bd48 55bc 24c0 37bb
000000e0: 9906 dd3d b090 b23c d203 9fbc cb66 99bd
000000f0: f5da 77bc 8171 ddbd a503 ca3d 9eec 0dbe
00000100: eb5f 8dbd 570d f43d ce7e eb3d e5f8 8bbd
00000110: cb3a c5bd b930 f5bd 9886 bbbd 1a2a 94bd
00000120: fc5b 1bbd e51a e4bc e86d ddbd ffab 0a3d
00000130: 5c2b ff3d 1b79 ea3d a3f1 2a3d 8395 d43d
00000140: c733 a5ba e633 69bc cb77 b83d 284d 94bd
00000150: de69 bbbd 9f0d 43bb 4f8b 8ebd 902e 7bbd
00000160: 7e65 0abe 738b bb3d 4ca4 ee3c 0e8f 0ebc
00000170: 27a0 0fbe e98b dabd a922 8a3c ca40 e33a
00000180: 9c5b d23d c38b abbd 51c6 e2bd 9e0b d6bd
00000190: 3254 5c3d 9370 ac3c 55cd 07bb 5b69 fdbd
000001a0: 7e5c f53d 3f67 813b c10e 38bd 3876 19bc
000001b0: e928 49bd be76 803d 0d8c 45bd d84b a43b
000001c0: 9ea4 c8bd 2e12 adbd d679 0dbe a049 b9bd
000001d0: 8a42 05be 7e61 8b3d 5e7b 7fbd 31b0 983d
000001e0: 0bd4 4d3d e177 fd3d baec 873b 3a66 04bd
000001f0: 34c6 eebc f39a d33d 4b8c c13d 7181 24bc
00000200: ecc1 18bd f25f eebd aabe 8d3d 2916 edbc
00000210: ac95 55bd e5b1 bc3d 4a8e 0ebe 7e6d f2bd
00000220: 126b 7dba 13e0 57bd a3a5 a7bc 6c47 b4bd
00000230: b0a4 c03d 9ed4 45bc ddb7 c43b 4dec e0bd
00000240: 005d babd 6bb8 853d 249c 55bd e5dc 803d
00000250: 4906 383c 1f91 50bd 8a9c 043e a096 4abd
00000260: 2e19 10bd 19d3 823d a8bc c4bd bda6 9fbd
00000270: 3996 c4bd ed8c ac3d 6b83 00bd d1b1 053e
00000280: 58fd fc3d c0e4 8a3d 3aca eb3d 5f0e 8ebd
00000290: 79c9 d6bd 2283 5a3d 1af6 f63d bccd 003e
000002a0: 2077 e73c 0033 c43d e59e f83c 2cb2 0e3e
000002b0: 8299 06be 3b9e 07be 04b6 c7bc e03e e93d
000002c0: dc1c 0ebd 5bc1 9a3b 1d56 b1bd 1390 b53c
000002d0: b14e ef3d 83d2 993d 9af4 c9bd 1693 263d
000002e0: 2fe2 723d 64db a93d 81ff 813d abd8 adbd
000002f0: df9e 6c3d a6ca e2bd 58f7 b93d 5dec c8bc
00000300: a959 0dbe a930 b63c 97ad 0e3e 43fe 52bd
00000310: 7442 403c b6a9 84bd 0926 6b3d 12a6 50bc
00000320: e1a4 ed3d 2257 ee3d 8cc5 da3b 4ec5 07bd
00000330: 9798 bcbd 1050 0b3d 5982 e2bd 4adf 9ebd
00000340: e610 073e 4af6 473d 364e 503d b042 5b3d
00000350: 451d b3bd 0d0d e9bd 276d ea3d 32b4 313d
00000360: 35d5 253d 767d b33c c3aa 083d 5996 5abd
00000370: 8966 f33c 9964 89bd b3b1 3ebd b9e7 e0bd
00000380: 22bd 583d 71c0 37bd d855 d7bd 35d9 563d
00000390: d9b1 94bd 7fdc 8bbc 4795 d03c c9d7 623d
000003a0: 90dd 963d 600d c0bd 9de6 afbd 939f 8d3d
000003b0: c4cd fd3d 055d 0bbd 40eb f2bd 910f a2bd
000003c0: 0d1c 27bd c835 193d ecc4 0f3e bf7a aa3d
000003d0: 5fe4 813c 0b91 9bbd cee3 8a3d 360e a5bd
000003e0: 7f89 44bd dc0b e73c be0f 0bbe 5ce4 c63b
000003f0: 87e5 cb3d 48c0 b5bd 95c8 e1bd 5797 f53d

lstm.bias_ih_l0 f4 [200]
0.7759623 0.6397637 0.5754264 0.5131398 0.65024555 0.7050781 0.70165473 0.7349737
0.70023096 0.53517115 0.5886499 0.63791806 0.53018713 0.594906 0.80096114 0.63963276
0.8577556 0.59861964 0.58704925 0.6393158 0.59453917 0.5834223 0.63612497 0.7073745
0.67884046 0.7198794 0.8832212 0.67152077 0.7418386 0.6736411 0.7456766 0.6638372
0.6465351 0.72873455 0.49927425 0.6752426 0.8097571 0.6129444 0.6545716 0.7589705
0.69464165 0.6960346 0.85547304 0.7835588 0.5837993 0.6205686 0.5752431 0.54331315
0.66879255 0.720415 0.032288652 0.122926906 -0.020516193 -0.08900235 0.12287567 0.09070447
-0.05344148 0.08168591 -0.1154499 -0.013833456 0.10889881 -0.010480185 0.044184532 -0.0016898022
0.063478164 0.14126053 -0.0530819 0.09378291 -0.09706804 -0.06595237 -0.04998586 -0.07843244
-0.07227163 0.031104662 -0.1123213 0.10513658 0.11235278 0.058029924 -0.09347378 0.13875096
-0.11944244 0.0039032705 -0.052166253 -0.055864792 -0.07840813 -0.016969182 0.051113527 0.10476827
-0.077815056 0.06414356 -0.023974275 -0.017976223 0.06928806 -0.11932099 -0.0040792082 -0.065302834
0.0986821 -0.04482958 0.10328967 0.020078877 -0.593623 -0.43153167 -0.47126135 -0.5075857
0.4074199 0.024572626 -0.31992152 -0.39588404 0.24171932 0.49310786 0.3484897 0.45590588
-0.18712027 0.52462643 -0.077420525 -0.26372722 0.37483743 -0.47844484 -0.2803279 0.23334132
-0.108657286 -0.3415402 -0.46621063 0.45741746 0.50731003 0.42729977 -0.19508487 0.31658682
0.53682315 -0.2188104 -0.4258306 -0.25536156 0.08335748 0.52487344 0.44774985 -0.58895797
-0.45104027 0.57527816 0.44013762 -0.5435111 0.35460272 0.30980992 -0.43659446 -0.010951626
0.40359774 0.41114482 -0.5935091 0.07855474 -0.38749564 -0.45777392 0.678341 0.8180308
0.72113806 0.727274 0.8529747 0.90895 0.71883184 0.6234764 0.559033 0.80343044
0.67666906 0.62878245 0.69561124 0.71767634 0.68163794 0.62697077 0.76447904 0.69265985
0.5693595 0.7337366 0.69137543 0.67241704 0.7760063 0.75156677 0.8082334 0.67817706
0.71762514 0.6531704 0.80522305 0.6561159 0.8135497 0.60856 0.7476937 0.8370577
0.695382 0.62267464 0.5987645 0.6597841 0.72391725 0.62509525 0.7461208 0.6508771
0.82440215 0.78684276 0.61934537 0.6069161 0.6601651 0.6397855 0.65514725 0.6207605
00000000: 77a5 463f 8ec7 233f 254f 133f 215d 033f
00000010: 7e76 263f 0080 343f a59f 333f 3d27 3c3f
00000020: 5642 333f fa00 093f c3b1 163f 994e 233f
00000030: 58ba 073f c24b 183f ca0b 4d3f f9be 233f
00000040: df95 5b3f 233f 193f dc48 163f 33aa 233f
00000050: b833 183f 2a5b 153f 16d9 223f 7f16 353f
00000060: 7dc8 2d3f 044a 383f c91a 623f c9e8 2b3f
00000070: 22e9 3d3f be73 2c3f a9e4 3e3f 3cf1 293f
00000080: 5383 253f 598e 3a3f e0a0 ff3e b3dc 2c3f
00000090: 3e4c 4f3f ede9 1c3f 0192 273f e44b 423f
000000a0: 09d4 313f 532f 323f 4800 5b3f 4f97 483f
000000b0: df73 153f 95dd 1e3f 2243 133f 9216 0b3f
000000c0: fd35 2b3f 1e6d 383f 1b41 043d 1ac1 fb3d
000000d0: 9311 a8bc dd46 b6bd 3da6 fb3d 44c3 b93d
000000e0: 74e5 5abd f14a a73d ff70 ecbd b8a5 62bc
000000f0: 5706 df3d 15b5 2bbc d7fa 343d 5a7c ddba
00000100: d700 823d 9aa6 103e 686c 59bd 4111 c03d
00000110: 9ccb c6bd 0912 87bd f9bd 4cbd 30a1 a0bd
00000120: 2603 94bd 34cf fe3c b608 e6bd d951 d73d
00000130: 3719 e63d c9b0 6d3d 2e6f bfbd bb14 0e3e
00000140: 3d9e f4bd 03ce 7f3b 48ac 55bd 7bd2 64bd
00000150: 7194 a0bd f402 8bbc 6b5c 513d bf90 d63d
00000160: 805d 9fbd b35d 833d b365 c4bc df42 93bc
00000170: e6e6 8d3d 905e f4bd e1aa 85bb 7ebd 85bd
00000180: d719 ca3d 399f 37bd 8989 d33d 757c a43c
00000190: adf7 17bf b8f1 dcbe 2b49 f1be 23f1 01bf
000001a0: 5799 d03e 884c c93c c1cc a3be 50b1 cabe
000001b0: 4585 773e a278 fc3e 3e6d b23e 7f6c e93e
000001c0: 759c 3fbe eb4d 063f a78e 9ebd 4107 87be
000001d0: b1ea bf3e b9f6 f4be 2387 8fbe 07f1 6e3e
000001e0: b687 debd 5bde aebe 29b3 eebe 9f32 ea3e
000001f0: 12df 013f 09c7 da3e 54c4 47be ab17 a23e
00000200: 3e6d 093f d50f 60be 7806 dabe c0be 82be
00000210: 54b7 aa3d 1b5e 063f 783f e53e f3c5 16bf
00000220: c0ee e6be 6e45 133f b859 e13e 8b23 0bbf
00000230: 7d8e b53e 689f 9e3e 4f89 dfbe 736e 33bc
00000240: 5da4 ce3e 9381 d23e 36f0 17bf 4fe1 a03d
00000250: d465 c6be 5861 eabe c1a7 2d3f 776a 513f
00000260: 819c 383f a12e 3a3f 8d5c 5a3f f2b0 683f
00000270: 5d05 383f 269c 1f3f c91c 0f3f 9ead 4d3f
00000280: 2f3a 2d3f e3f7 203f 9413 323f a3b9 373f
00000290: d37f 2e3f 2881 203f e6b4 433f 2852 313f
000002a0: 8bc1 113f 29d6 3b3f fbfd 303f 8623 2c3f
000002b0: 59a8 463f ae66 403f 62e8 4e3f 039d 2d3f
000002c0: 48b6 373f 2d36 273f 1923 4e3f 36f7 273f
000002d0: cb44 503f 97ca 1b3f db68 3f3f 6a49 563f
000002e0: 8e04 323f 9b67 1f3f a148 193f 9ce7 283f
000002f0: a452 393f 3e06 203f c601 3f3f e29f 263f
00000300: 050c 533f 876e 493f 6b8d 1e3f db5e 1b3f
00000310: 9400 293f fcc8 233f bbb7 273f 29ea 1e3f

lstm.bias_hh_l0 f4 [200]
0.8076009 0.6420413 0.82509744 0.71968675 0.7095649 0.74270415 0.56471676 0.7550605
0.82399786 0.7629216 0.61827487 0.67306536 0.6511309 0.66455543 0.8028151 0.77324975
0.64310926 0.62976617 0.58738184 0.5926532 0.62038827 0.7384802 0.51876223 0.7533926
0.6355404 0.6279985 0.6548031 0.6334806 0.80658054 0.59715986 0.6853021 0.6677791
0.5593448 0.60074824 0.5359326 0.659748 0.62725246 0.6866365 0.775834 0.8290388
0.8727774 0.56545234 0.7982949 0.9555138 0.7114273 0.6903053 0.621876 0.7513348
0.49529308 0.81345844 -0.11613639 -0.11300349 -0.07476957 -0.050684337 0.019312495 0.03442415
-0.1041256 0.028888682 0.01089223 0.0022367164 0.09429358 -0.102855526 0.10579097 0.1274449
-0.0181191 -0.035465177 0.063964166 -0.07670425 -0.13461824 -0.086129114 -0.08529408 -0.038905066
-0.07577062 -0.024799999 -0.01940977 0.05910971 -0.08386033 0.05407682 0.112261154 0.1022065
0.04369841 -0.10255608 -0.112237416 0.052128505 -0.10434328 -0.05110395 0.032429844 -0.09804868
-0.111342974 -0.12127911 -0.0661712 -0.037400864 0.026091497 -0.10886466 0.094961 -0.094129205
0.05955124 0.12611741 -0.06723746 0.07868257 -0.43522406 -0.4712283 -0.5085201 -0.48905152
0.49920744 0.06829978 -0.51217514 -0.60697985 0.3681792 0.49920893 0.394216 0.49204415
-0.19014852 0.4388786 -0.19292451 -0.4634253 0.3790941 -0.4093636 -0.3642905 0.49456564
-0.27461532 -0.5703788 -0.5784786 0.35564858 0.46915922 0.5692242 -0.43703908 0.41279027
0.4678583 -0.024125023 -0.6185658 -0.32385743 0.034573566 0.5342724 0.5398022 -0.50931233
-0.5596198 0.5770689 0.504039 -0.40621045 0.31143805 0.04834632 -0.56044143 -0.022766346
0.46755323 0.42346016 -0.5842494 0.14599966 -0.44720048 -0.38514763 0.6878281 0.619129
0.86312026 0.8355997 0.76544744 0.65585065 0.76440233 0.78658235 0.5859186 0.6824372
0.83472264 0.7905212 0.63385135 0.7558808 0.63176143 0.7746756 0.7517067 0.79325294
0.7839789 0.6740193 0.66150135 0.76352715 0.7045619 0.7362354 0.85597396 0.77741367
0.7634809 0.708785 0.6518177 0.66316223 0.7583207 0.7495013 0.69536096 0.82340646
0.66851497 0.7123649 0.8633204 0.6499922 0.78650856 0.6029293 0.6548749 0.80346036
0.7952617 0.92425436 0.7834919 0.7371617 0.64332545 0.57164216 0.7723442 0.81965786
00000000: efbe 4e3f d25c 243f 9639 533f 643d 383f
00000010: 0ca6 353f dc21 3e3f 4791 103f a54b 413f
00000020: 86f1 523f d44e 433f 4347 1e3f 034e 2c3f
00000030: 84b0 263f 4e20 2a3f 4a85 4d3f b2f3 453f
00000040: cfa2 243f 5b38 213f a85e 163f 1fb8 173f
00000050: c4d1 1e3f 0a0d 3d3f 9acd 043f 56de 403f
00000060: c7b2 223f 82c4 203f 2da1 273f c92b 223f
00000070: 107c 4e3f 78df 183f f56f 2f3f 92f3 2a3f
00000080: 3931 0f3f a3ca 193f e132 093f 3fe5 283f
00000090: 9e93 203f 69c7 2f3f 0f9d 463f e33b 543f
000000a0: 576e 5f3f 7cc1 103f 0e5d 4c3f 8d9c 743f
000000b0: 1920 363f d9b7 303f 4433 1f3f 7a57 403f
000000c0: 0e97 fd3e d03e 503f ead8 edbd 606e e7bd
000000d0: ca20 99bd 619a 4fbd 3d35 9e3c 5600 0d3d
000000e0: cd3f d5bd f5a7 ec3c 5375 323c e095 123b
000000f0: fe1c c13d eba5 d2bd f0a8 d83d ea80 023e
00000100: 826e 94bc ef43 11bd a5ff 823d 1e17 9dbd
00000110: 5dd9 09be 7664 b0bd aaae aebd eb5a 1fbd
00000120: a02d 9bbd 5e29 cbbc 3d01 9fbc 061d 723d
00000130: f7be abbd a87f 5d3d 2de9 e53d a451 d13d
00000140: 1bfd 323d ec08 d2bd bbdc e5bd b384 553d
00000150: eeb1 d5bd 6052 51bd 28d5 043d bfcd c8bd
00000160: c907 e4bd 2f61 f8bd c484 87bd a631 19bd
00000170: d6bd d53c 6ff4 debd ea7a c23d d0c6 c0bd
00000180: 00ec 733d ec24 013e cbb3 89bd 5424 a13d
00000190: b0d5 debe d644 f1be 602e 02bf f664 fabe
000001a0: 1e98 ff3e c1e0 8b3d e91d 03bf 0863 1bbf
000001b0: fc81 bc3e 5098 ff3e aed6 c93e 36ed fb3e
000001c0: 4bb6 42be b2b4 e03e 018e 45be 1546 edbe
000001d0: 9f18 c23e 1b98 d1be 4984 babe b537 fd3e
000001e0: 619a 8cbe 5804 12bf 2c17 14bf 9217 b63e
000001f0: a335 f03e adb8 113f 96c3 dfbe 3f59 d33e
00000200: 208b ef3e d7a1 c5bc 545a 1ebf a4d0 a5be
00000210: 039d 0d3d 13c6 083f 7a30 0a3f 4b62 02bf
00000220: 3e43 0fbf caba 133f b308 013f d1fa cfbe
00000230: cf74 9f3e ca06 463d 1779 0fbf 7d80 babc
00000240: 2363 ef3e c5cf d83e 5e91 15bf ef80 153e
00000250: 76f7 e4be 1232 c5be 8115 303f 3d7f 1e3f
00000260: 73f5 5c3f dde9 553f 5df4 433f d4e5 273f
00000270: dfaf 433f 765d 493f c3fe 153f 34b4 2e3f
00000280: 62b0 553f 995f 4a3f 1544 223f 6781 413f
00000290: 1ebb 213f 2451 463f da6f 403f a012 4b3f
000002a0: d7b2 483f 878c 2c3f 2758 293f 8476 433f
000002b0: 2b5e 343f ec79 3c3f 1c21 5b3f 9504 473f
000002c0: 7c73 433f ef72 353f 86dd 263f 00c5 293f
000002d0: 4e21 423f 51df 3f3f 2d03 323f c4ca 523f
000002e0: cc23 2b3f 8c5d 363f 9102 5d3f e465 263f
000002f0: a058 493f 9359 1a3f e2a5 273f 94af 4d3f
00000300: 4596 4b3f ef9b 6c3f ed92 483f a1b6 3c3f
00000310: fab0 243f 2457 123f 59b8 453f 19d5 513f

fc.weight f4 [1, 50]
-1.1788713 -1.2374631 -1.2374305 -1.238058 1.2269789 1.184086 -1.1985778 -1.2513014
1.1875218 1.2293656 1.2074734 1.1804113 -1.2532849 1.2471462 -1.1864 -1.1884975
1.1188124 -1.2936437 -1.2388941 1.3256081 -1.3070265 -1.1725962 -1.215218 1.2642804
1.2439998 1.2720331 -1.1367381 1.2343073 1.103129 -1.285987 -1.1059924 -1.2275218
1.3612231 1.1613137 1.2777572 -1.2462387 -1.1426655 1.142362 1.1739889 -1.2237382
1.1805704 1.2474153 -1.0985602 1.3509262 1.2739053 1.1284728 -1.1534481 1.2814071
-1.2090361 -1.2300949
00000000: 41e5 96bf 3165 9ebf 1f64 9ebf af78 9ebf
00000010: a50d 9d3f 2190 973f ff6a 99bf a52a a0bf
00000020: b700 983f da5b 9d3f 7d8e 9a3f b817 973f
00000030: a46b a0bf 7da2 9f3f f5db 97bf b020 98bf
00000040: 3f35 8f3f 1e96 a5bf 1594 9ebf 87ad a93f
00000050: a54c a7bf a217 96bf 438c 9bbf f1d3 a13f
00000060: 633b 9f3f fbd1 a23f a280 91bf c8fd 9d3f
00000070: 5533 8d3f 399b a4bf 2991 8dbf 6f1f 9dbf
00000080: 8f3c ae3f eda5 943f 8c8d a33f c084 9fbf
00000090: dd42 92bf eb38 923f 4545 963f 74a3 9cbf
000000a0: ee1c 973f 4eab 9f3f 9f9d 8cbf 26eb ac3f
000000b0: 540f a33f cc71 903f 30a4 93bf 2605 a43f
000000c0: b2c1 9abf c073 9dbf
